…
oduces the 4 class logits, then squeeze → softmax happens inside the loss.\n\n\nprint(model)\n\n=================================================================================================================================================\nLayer (type (var_name):depth-idx)             Input Shape               Output Shape              Param #                   Kernel Shape\n=================================================================================================================================================\nShallowFBCSPNet (ShallowFBCSPNet)             [1, 22, 1125]             [1, 4]                    --                        --\n├─Ensure4d (ensuredims): 1-1                  [1, 22, 1125]             [1, 22, 1125, 1]          --                        --\n├─Rearrange (dimshuffle): 1-2                 [1, 22, 1125, 1]          [1, 1, 1125, 22]          --                        --\n├─CombinedConv (conv_time_spat): 1-3          [1, 1, 1125, 22]          [1, 40, 1101, 1]          36,240                    --\n├─BatchNorm2d (bnorm): 1-4                    [1, 40, 1101, 1]          [1, 40, 1101, 1]          80                        --\n├─Square (conv_nonlin_exp): 1-5               [1, 40, 1101, 1]          [1, 40, 1101, 1]          --                        --\n├─AvgPool2d (pool): 1-6                       [1, 40, 1101, 1]          [1, 40, 69, 1]            --                        [75, 1]\n├─SafeLog (pool_nonlin_exp): 1-7              [1, 40, 69, 1]            [1, 40, 69, 1]            --                        --\n├─Dropout (drop): 1-8                         [1, 40, 69, 1]            [1, 40, 69, 1]            --                        --\n├─Sequential (final_layer): 1-9               [1, 40, 69, 1]            [1, 4]                    --                        --\n│    └─Conv2d (conv_classifier): 2-1          [1, 40, 69, 1]            [1, 4, 1, 1]              11,044                    [69, 1]\n│    └─SqueezeFinalOutput (squeeze): 2-2      [1, 4, 1, 1]              [1, 4]                    --                        --\n│    │    └─Rearrange (squeeze): 3-1          [1, 4, 1, 1]              [1, 4, 1]                 --                        --\n=================================================================================================================================================\nTotal params: 47,364\nTrainable params: 47,364\nNon-trainable params: 0\nTotal mult-adds (Units.MEGABYTES): 0.01\n===============================================================================================================
…
